save_model/D.pth (torch, 622034 bytes, 37 tensors)

net1.model.0.weight f4 [24, 2, 3, 3]
0.06097071 -0.035060074 0.18268651 0.033983707 0.022918748 -0.0015232094 0.16494343 -0.16913022
-0.0035852352 0.027561642 0.10163763 0.10692135 -0.027887227 -0.082548425 0.014307291 -0.08105655
-0.196049 -0.05221629 0.006537181 0.010474069 -0.06214651 -0.09416809 -0.014016791 -0.06369979
0.038543615 -0.036014438 0.022075824 0.02234039 0.094500594 -0.02837131 0.009279872 -0.09744538
0.11893467 0.10656005 -0.08039388 -0.010682039 -0.0523802 -0.17067447 0.10725436 -0.035936475
0.028414091 0.07471422 -0.09011597 -0.10164344 -0.17449774 -0.07160689 -0.071236126 0.20472328
0.040443655 0.024195142 0.03509888 -0.014172893 -0.008559395 0.017894976 0.073341206 0.035019062
0.049343716 0.056067742 0.1626878 -0.072398156 0.088423066 0.0044553815 -0.08310238 -0.057414655
0.0609764 -0.024906138 0.029062202 -0.03860046 0.08395056 -0.029893735 -0.008379337 -0.011284747
-0.03451472 0.038174998 -0.022075716 0.0543068 -0.00698545 -0.029564401 -0.08564543 -0.101967335
-0.0063265446 -0.1530613 0.08420928 0.20891708 -0.036507312 -0.03831199 0.09618218 0.0078118304
0.07366041 -0.14781135 -0.041925672 -0.1345385 0.022749225 0.0043139076 -0.15919042 -0.0014998156
-0.016502332 0.010398154 -0.059076417 0.07303773 0.006512423 0.1398426 -0.068666935 -0.053857632
0.1716115 -0.10434961 -0.093028985 -0.011668278 0.10749353 0.018451309 0.043258995 0.18935147
0.069685705 -0.013861907 0.035030376 0.14487363 -0.05478998 -0.01128371 -0.021393793 -0.11737538
0.066072986 0.13685757 0.080966435 -0.09744951 -0.023099676 0.15181282 0.042686768 0.06060789
-0.07694216 -0.094400905 -0.08067805 -0.093106896 0.030373896 -0.022864498 -0.010079276 0.064512335
0.065299004 0.04447136 -0.101923004 -0.031337 0.04482006 0.08863136 0.059643272 -0.06443897
-0.018450258 -0.04541918 0.009215605 -0.029736238 0.058189858 0.020447422 0.049130403 0.13737735
-0.008534681 -0.038066857 0.0036481947 0.07486558 0.07427531 -0.12422779 -0.019490613 -0.18255965
-0.041887347 -0.10467194 -0.013584137 -0.078240946 0.12246022 -0.10102279 0.068092674 0.091628104
-0.07422873 -0.05462566 0.08958462 0.008408309 -0.039013065 -0.22076353 -0.09001827 -0.044069402
0.13930912 -0.06365113 0.14128146 -0.10435871 0.11486607 -0.0705842 0.02897937 -0.1296367
0.021779982 -0.026997564 0.07965837 0.04285866 -0.014978879 0.10290102 0.018717067 -0.008842045
0.026909972 -0.053737342 0.07273664 0.01286242 0.10603717 0.18058103 -0.012389928 0.09523582
-0.15613925 0.07784863 0.053043384 -0.12659323 -0.0025211265 0.041849293 0.09336048 -0.063923486
0.051558796 0.14705507 -0.0023940606 0.016879225 -0.11076335 -0.05972744 -0.098542176 -0.079632334
0.0187136 0.22714181 -0.026450036 0.13553922 0.020051781 -0.1381928 -0.059013445 0.00659381
0.08487525 0.101049535 0.09933419 0.13129863 0.059741076 -0.1558694 -0.06228332 -0.11401826
0.14270736 0.06537347 -0.100832075 0.16632494 0.047195107 0.058111735 -0.007841185 -0.012136118
0.0030945018 0.010112079 -0.12327155 -0.10724976 -0.06306417 0.029548526 -0.07715297 -0.08237759
0.06269417 0.022414995 0.06766022 -0.14209409 -0.056586083 -0.09861197 0.031581886 -0.049531113
00000000: 6cbc 793d 279b 0fbd 2c12 3b3e 8032 0b3d
00000010: 19c0 bb3c 6da6 c7ba eee6 283e 7930 2dbe
00000020: 44f6 6abb f4c8 e13c 6427 d03d 95f9 da3d
00000030: c173 e4bc 260f a9bd 2169 6a3c fa00 a6bd
00000040: 12c1 48be c0e0 55bd d935 d63b 6e9b 2b3c
00000050: 578d 7ebd 33db c0bd afa6 65bc 0975 82bd
00000060: e9df 1d3d e083 13bd 5cd8 b43c 3203 b73c
00000070: 8789 c13d f36a e8bc 9b0a 183c 7291 c7bd
00000080: 0594 f33d 283c da3d 8ca5 a4bd b803 2fbc
00000090: 9f8c 56bd 4ac5 2ebe 2da8 db3d 2032 13bd
000000a0: abc4 e83c c503 993d b98e b8bd 702a d0bd
000000b0: 89af 32be a2a6 92bd 3fe4 91bd fba2 513e
000000c0: 3fa8 253d e434 c63c d8c3 0f3d 6c35 68bc
000000d0: b43c 0cbc 7c98 923c ea33 963d 2670 0f3d
000000e0: a31c 4a3d 4aa7 653d a197 263e 7c45 94bd
000000f0: 2717 b53d 73fe 913b 9531 aabd a12b 6bbd
00000100: 64c2 793d f507 ccbc db13 ee3c 841b 1ebd
00000110: 45ee ab3d b5e3 f4bc 7d49 09bc a9e3 38bc
00000120: 4f5f 0dbd 635d 1c3d 22d8 b4bc cf70 5e3d
00000130: 34e6 e4bb 0b31 f2bc df66 afbd 40d4 d0bd
00000140: e74e cfbb 1abc 1cbe ea75 ac3d 5cee 553e
00000150: b188 15bd 09ed 1cbd 2afb c43d 62fa ff3b
00000160: 45db 963d dc5b 17be 41ba 2bbd 76c4 09be
00000170: 955c ba3c ae5b 8d3b d002 23be 7695 c4ba
00000180: e62f 87bc 055d 2a3c 1dfa 71bd ce94 953d
00000190: 2a66 d53b e632 0f3e 40a1 8cbd d299 5cbd
000001a0: edba 2f3e 40b5 d5bd fb85 bebd 4e2c 3fbc
000001b0: 9125 dc3d 3327 973c 5830 313d 5ae5 413e
000001c0: 61b7 8e3d 0d1d 63bc 037c 0f3d c159 143e
000001d0: 756b 60bd 4fdf 38bc 0942 afbc 8162 f0bd
000001e0: 4651 873d 6424 0c3e bbd1 a53d 9c93 c7bd
000001f0: 883b bdbc d274 1b3e 52d8 2e3d fb3f 783d
00000200: da93 9dbd 4355 c1bd 893a a5bd d4ae bebd
00000210: add2 f83c 544e bbbc 8c23 25bc 0b1f 843d
00000220: 7cbb 853d 9a27 363d 02bd d0bd 3a5b 00bd
00000230: 3d95 373d 5c84 b53d 814c 743d 94f8 83bd
00000240: ff24 97bc 7609 3abd 0dfd 163c 6999 f3bc
00000250: 7d58 6e3d 5a81 a73c f63c 493d a6ac 0c3e
00000260: 0cd5 0bbc feeb 1bbd 8d16 6f3b 2053 993d
00000270: a71d 983d 246b febd c7aa 9fbc ebf0 3abe
00000280: 1192 2bbd 3e5e d6bd 0090 5ebc ca3c a0bd
00000290: 6ccc fa3d 09e5 cebd 2c74 8b3d 84a7 bb3d
000002a0: 3b05 98bd 28bf 5fbd 2478 b73d 01c3 093c
000002b0: 2acc 1fbd d60f 62be 805b b8bd 1e82 34bd
000002c0: 0da7 0e3e 865b 82bd 16ac 103e 05ba d5bd
000002d0: e73e eb3d 738e 90bd 2566 ed3c 7cbf 04be
000002e0: ef6b b23c ff29 ddbc ed23 a33d 908c 2f3d
000002f0: f969 75bc c5bd d23d 8954 993c 3ade 10bc
00000300: 4d72 dc3c b01b 5cbd f3f6 943d e6bc 523c
00000310: 042a d93d 3cea 383e 20ff 4abc ff0a c33d
00000320: f8e2 1fbe 1a6f 9f3d 0544 593d a8a1 01be
00000330: 7c39 25bb 2a6a 2b3d c833 bf3d 51ea 82bd
00000340: 512f 533d 9b95 163e ace5 1cbb 4d46 8a3c
00000350: e5d7 e2bd c3a4 74bd 7bd0 c9bd 4716 a3bd
00000360: 434d 993c dd97 683e bfad d8bc cbca 0a3e
00000370: a243 a43c 6a82 0dbe 15b8 71bd e310 d83b
00000380: 13d3 ad3d 0ff3 ce3d b96f cb3d 2673 063e
00000390: 0fb3 743d 3a9c 1fbe cb1c 7fbd 6882 e9bd
000003a0: e121 123e 87e2 853d 0c81 cebd 1651 2a3e
000003b0: a84f 413d 9206 6e3d 5078 00bc 91d6 46bc
000003c0: 20cd 4a3b 22ad 253c cb75 fcbd c3a5 dbbd
000003d0: ca27 81bd c00f f23c 6002 9ebd 95b5 a8bd
000003e0: cd65 803d a79f b73c 7191 8a3d 1d81 11be
000003f0: cfc6 67bd 13f5 c9bd 025c 013d 23e1 4abd

net1.model.0.bias f4 [24]
-0.12841746 -0.2104776 0.19650759 -0.03472078 0.22206607 0.0017030754 -0.020630963 -0.07076782
-0.027193816 0.07890844 0.10062668 -0.15968408 -0.20497787 -0.18138005 -0.023297818 -0.11198625
-0.1825139 0.1790588 0.03722799 -0.1388078 0.0066804127 -0.0934615 0.067883894 -0.018545562
00000000: de7f 03be 7187 57be 4939 493e 6037 0ebd
00000010: 4a65 633e ba39 df3a 4402 a9bc b8ee 90bd
00000020: 91c5 debc c09a a13d 5c15 ce3d 3984 23be
00000030: b8e5 51be b1bb 39be 11db bebc 0c59 e5bd
00000040: ece4 3abe 315b 373e 607c 183d a223 0ebe
00000050: 5de7 da3b be68 bfbd b606 8b3d ddec 97bc

net1.model.1.weight f4 [24]
-1.073577 0.39629957 -0.54786223 -0.77729505 -0.82561105 -0.22706912 1.2239304 -0.14849392
-0.26843485 -0.07697336 1.7854352 -0.75888777 0.15098181 -0.8717087 0.9234667 -0.6659078
-0.15435474 0.07802757 -1.6095871 -0.46026286 0.68457323 0.3936472 -1.3028513 -0.006875068
00000000: f96a 89bf c7e7 ca3e b340 0cbf cffc 46bf
00000010: 3f5b 53bf cf84 68be c0a9 9c3f ca0e 18be
00000020: 4b70 89be 35a4 9dbd 2489 e43f 7846 42bf
00000030: fa9a 1a3e 4d28 5fbf 5068 6c3f ef78 2abf
00000040: 2b0f 1ebe ebcc 9f3d f306 cebf 93a7 ebbe
00000050: 3140 2f3f 208c c93e d5c3 a6bf 4048 e1bb

net1.model.1.bias f4 [24]
0.006133252 -0.013355111 0.0025061236 -0.0101788705 -0.008494344 -0.0016356084 -0.0043088635 -0.0044969604
0.012046278 0.018765563 -0.031221427 -0.010610434 -0.0071122376 -0.022644863 0.0032703846 -8.590636e-05
0.0042183204 -0.006422505 -0.0037089374 0.010025713 0.0046029943 -0.008618242 0.007349552 -0.006982449
00000000: 72f9 c83b 65cf 5abc c73d 243b 47c5 26bc
00000010: dc2b 0bbc e961 d6ba 5e31 8dbb 3d5b 93bb
00000020: c15d 453c 3dba 993c 14c4 ffbc 63d7 2dbc
00000030: c60d e9bb b881 b9bc f353 563b a028 b4b8
00000040: d639 8a3b e073 d2bb a511 73bb e342 243c
00000050: b7d4 963b 8733 0dbc 83d4 f03b 07cd e4bb

net1.model.1.running_mean f4 [24]
0.022681903 -0.30763668 0.10333652 -0.08181805 0.15476266 -0.00066735956 -0.25462627 -0.19522612
0.28819147 0.32204708 -0.3307805 0.019888919 -0.48473176 0.08489262 0.017182207 0.087191224
-0.121689916 0.14577511 -0.2860195 -0.051561866 0.1486641 -0.4099758 -0.089870185 -0.32451603
00000000: 66cf b93c 8e82 9dbe 19a2 d33d 3990 a7bd
00000010: 1a7a 1e3e bef1 2eba 605e 82be 5be9 47be
00000020: d58d 933e 5be3 a43e 105c a9be 16ee a23c
00000030: c32e f8be 2fdc ad3d b3c1 8c3c 5091 b23d
00000040: 9038 f9bd 1246 153e 2671 92be 8932 53bd
00000050: 673b 183e 59e8 d1be dc0d b8bd f726 a6be

net1.model.1.running_var f4 [24]
0.022433797 0.009721787 0.04199625 0.023521265 0.013287803 0.040229734 0.069520004 0.015623921
0.011828756 0.006626992 0.00822408 0.00552607 0.023587087 0.003777472 0.008346589 0.012381782
0.0155403465 0.08168076 0.036827035 0.0052221925 0.02784108 0.020917073 0.027503122 0.068258375
00000000: 15c7 b73c 2148 1f3c 4304 2c3d abaf c03c
00000010: 16b5 593c efc7 243d 8160 8e3d 79fb 7f3c
00000020: 66cd 413c 3d27 d93b 4bbe 063c 0914 b53b
00000030: b539 c13c 778f 773b 22c0 083c f5dc 4a3c
00000040: f09c 7e3c 3e48 a73d f2d7 163d ed1e ab3b
00000050: fa12 e43c 485a ab3c 3a4e e13c 0ccb 8b3d

net2.model.0.weight f4 [24, 24, 3, 3]
-0.009853061 -0.050055854 0.1228033 -0.040244028 0.10308375 0.1534951 0.020624837 -0.010295289
-0.030038532 -0.14325139 -0.17331666 -0.04951772 0.02271908 -0.061166868 0.014543195 -0.03447678
0.070529506 -0.033786114 -0.08707778 0.06573777 0.14509661 0.035059433 0.06759155 0.01568999
0.014875531 -0.012730375 -0.09737419 -0.073859505 0.025214503 0.009889735 -0.0029798863 0.042239994
0.0221124 -0.025578413 -0.01826503 0.015852269 -0.1108692 -0.022449063 0.035911888 0.019213378
0.16337888 -0.0939965 0.0069540553 0.057337303 0.03178655 0.063695855 -0.1238246 -0.046870932
0.19866958 -0.024715316 -0.11270875 0.010435042 0.06714694 0.050935 0.028671017 -0.14602622
0.0055797175 -0.0033956142 -0.05205284 -0.113530494 -0.09551795 -0.010897599 -0.07788172 -0.08389237
-0.03667763 -0.014957523 0.06191351 0.026277568 -0.030860648 -0.025293417 0.115095854 -0.018961508
0.044213437 -0.055168487 0.04237616 -0.0226374 0.010083721 0.035276942 -0.04555141 0.004716266
-0.010924826 0.031225322 0.05326748 -0.044601437 -0.058544315 0.033208452 0.030903412 0.010221511
0.07141118 0.0017672781 -0.024423419 0.029690836 -0.09274713 0.025830647 0.072588146 -0.042124122
0.011916314 -0.060970098 0.0036463428 0.013703361 0.030868256 0.02863822 0.03395149 0.052676134
0.13884476 -0.06947035 -0.083450444 0.06252392 0.07049558 0.022458281 -0.09456909 -0.12826014
-0.05350219 -0.08222507 -0.023263592 0.015256725 0.06590322 0.026957063 -0.13168108 0.09309044
-0.10717262 -0.02552931 -0.043207824 -0.032472886 -0.027359325 -0.05597962 -0.091387674 0.062057078
-0.055483576 0.10012823 -0.01364467 0.046071645 -0.05029729 -0.021005705 -0.022820212 -0.0104740765
0.03678027 0.022231488 0.007097125 0.04239676 -0.061469495 -0.04520875 0.048496734 -0.09337046
-0.034176905 0.014257657 -0.11081039 0.012993871 0.08294366 0.056027368 0.081434436 -0.008536358
0.031114632 -0.02985098 0.042065836 0.014706687 -0.046511482 0.03498356 0.017714953 0.09221867
-0.027949886 -0.07941014 0.047291383 -0.011272902 0.0140274605 -0.08988837 -0.11496707 0.053927332
0.08229448 -0.043088757 0.05293893 0.09346988 0.028297618 -0.08511003 0.054745432 0.06003226
0.0023161422 0.02184945 -0.044347532 -0.048939023 -0.050586175 0.013080721 0.036076937 -0.025520096
-0.0043627163 0.008005871 -0.017209131 0.090345405 0.12155023 -0.13922173 0.017187554 0.09398219
0.19956608 0.014479338 0.100711554 -0.058654092 -0.012910682 0.0047927075 0.047981024 0.08016809
-0.022183638 0.0053642993 -0.018045668 -0.0001001995 -0.010306038 0.16158025 0.022050943 -0.03861363
0.06375253 0.058813028 0.038316645 -0.06448457 0.09679198 -0.0077343057 -0.021873044 0.033130165
-0.048027158 0.028266693 0.0728489 0.15167584 -0.012869206 0.012485601 0.04286012 -0.07682859
0.0772112 0.067256086 0.084225126 0.11319067 -0.07154399 -0.05173439 -0.03496977 -0.021696009
0.02137595 0.051355246 -0.1007347 -0.16624528 -0.039125044 -0.02239365 -0.015025336 -0.071145676
0.05089647 0.027953634 0.007635008 0.021462956 -0.09657557 0.09030966 0.0074048378 0.010746222
-0.067569286 0.011549046 0.04992627 0.006831944 0.046194978 0.029721273 0.0345857 -0.056965444
00000000: bc6e 21bc 5e07 4dbd 4c80 fb3d ecd6 24bd
00000010: 931d d33d d22d 1d3e 6bf5 a83c 92ad 28bc
00000020: 5e13 f6bc 7eb0 12be ec79 31be 18d3 4abd
00000030: 5d1d ba3c 1c8a 7abd 9546 6e3c 8637 0dbd
00000040: c671 903d 4f63 0abd d655 b2bd 86a1 863d
00000050: 3594 143e 7b9a 0f3d 706d 8a3d 4b88 803c
00000060: 80b8 733c 1093 50bc 1f6c c7bd a743 97bd
00000070: a58e ce3c 8e08 223c 324a 43bb d803 2d3d
00000080: 1025 b53c d289 d1bc 8ba0 95bc 9edc 813c
00000090: 640f e3bd 19e7 b7bc 5818 133d 6065 9d3c
000000a0: cb4c 273e 3d81 c0bd d8de e33b 85da 6a3d
000000b0: 9d32 023d f972 823d c097 fdbd bcfb 3fbd
000000c0: 0a70 4b3e c677 cabc d8d3 e6bd bdf7 2a3c
000000d0: 5684 893d 38a1 503d 7bdf ea3c e687 15be
000000e0: 10d6 b63b f488 5ebb 5c35 55bd ad82 e8bd
000000f0: ea9e c3bd d88b 32bc 7480 9fbd c3cf abbd
00000100: 483b 16bd 6610 75bc 0599 7d3d 0e44 d73c
00000110: 78cf fcbc 2434 cfbc 60b7 eb3d 2a55 9bbc
00000120: 2619 353d 5af8 61bd a092 2d3d 1272 b9bc
00000130: 3136 253c 8e7e 103d 1e94 3abd e88a 9a3b
00000140: 0bfe 32bc 3fcc ff3c 002f 5a3d ffaf 36bd
00000150: 2acc 6fbd 9605 083d 2729 fd3c 2078 273c
00000160: 0640 923d 03a4 e73a 9f13 c8bc 323a f33c
00000170: 35f2 bdbd cb9a d33c 18a9 943d 588a 2cbd
00000180: a53c 433c c8bb 79bd 7bf7 6e3b 1084 603c
00000190: 6ddf fc3c b39a ea3c b810 0b3d eec2 573d
000001a0: 522d 0e3e 7946 8ebd 11e8 aabd 8a0c 803d
000001b0: fd5f 903d 6efa b73c 70ad c1bd a056 03be
000001c0: 1d25 5bbd 9e65 a8bd 4a93 bebc 58f7 793c
000001d0: 44f8 863d 0fd5 dc3c 68d7 06be 33a6 be3d
000001e0: 527d dbbd d822 d1bc b0fa 30bd 4a02 05bd
000001f0: aa20 e0bc e34a 65bd 7629 bbbd 902f 7e3d
00000200: bf42 63bd 0810 cd3d e58d 5fbc 9fb5 3c3d
00000210: 8804 4ebd 2814 acbc 74f1 babc 769b 2bbc
00000220: e9a6 163d cf1e b63c 008f e83b 3aa8 2d3d
00000230: 70c7 7bbd cf2c 39bd 83a4 463d 0339 bfbd
00000240: 15fd 0bbd f398 693c 8ff0 e2bd 3fe4 543c
00000250: 5ede a93d f47c 653d 19c7 a63d 15dc 0bbc
00000260: 1de4 fe3c 0b8a f4bc 3a4d 2c3d 51f4 703c
00000270: d382 3ebd ec4a 0f3d f31e 913c 24dd bc3d
00000280: 29f7 e4bc c9a1 a2bd 9cb4 413d fab1 38bc
00000290: 6fd3 653c 6517 b8bd db73 ebbd e8e2 5c3d
000002a0: 028a a83d d67d 30bd 7ed6 583d 236d bf3d
000002b0: 68d0 e73c 2b4e aebd bf3c 603d 63e4 753d
000002c0: 6bca 173b 9efd b23c c2a5 35bd 4974 48bd
000002d0: 7333 4fbd 8550 563c 69c5 133d 850f d1bc
000002e0: 1ef5 8ebb 0f2b 033c 2afa 8cbc 0307 b93d
000002f0: 54ef f83d 2490 0ebe eacc 8c3c bc79 c03d
00000300: 0d5b 4c3e bf3a 6d3c dc41 ce3d 463f 70bd
00000310: 5387 53bc 250c 9d3b c087 443d 2b2f a43d
00000320: 76ba b5bc 01c7 af3b 82d4 93bc 3222 d2b8
00000330: a8da 28bc 4b75 253e 2ea4 b43c 5329 1ebd
00000340: b090 823d eee5 703d eaf1 1c3d 7c10 84bd
00000350: e03a c63d 0f70 fdbb 192f b3bc 7fb3 073d
00000360: 20b8 44bd 8d8f e73c ce31 953d e950 1b3e
00000370: 5dd9 52bc 6890 4c3c 188e 2f3d 4f58 9dbd
00000380: e820 9e3d 8fbd 893d 397e ac3d 83d0 e73d
00000390: a885 92bd 71e7 53bd 763c 0fbd d4bb b1bc
000003a0: 9e1c af3c e159 523d ff4d cebd 343c 2abe
000003b0: 9541 20bd e372 b7bc d42c 76bc d3b4 91bd
000003c0: d178 503d 05ff e43c 172f fa3b 15d3 af3c
000003d0: 6ac9 c5bd 45f4 b83d 48a4 f23b ec10 303c
000003e0: c461 8abd 3638 3d3c 7d7f 4c3d 80de df3b
000003f0: f236 3d3d 077a f33c bca9 0d3d 9954 69bd

net2.model.0.bias f4 [24]
-0.023315575 0.051305387 0.06659156 -0.016514659 0.018032331 0.046800062 0.026054569 0.016907176
0.016707147 0.033489067 -0.03137261 -0.059196748 -0.018936448 0.0076542525 -0.010100303 -0.0038762204
-0.050536018 -0.06753809 -0.029626174 0.025425104 0.01140731 0.019755812 0.02596716 -0.012596578
00000000: 4e00 bfbc 9925 523d 2861 883d c049 87bc
00000010: 8ab8 933c 6cb1 3f3d 6470 d53c eb80 8a3c
00000020: 6ddd 883c d52b 093d 9180 00bd 4a78 72bd
00000030: 9c20 9bbc 86d0 fa3b be7b 25bc 3008 7ebb
00000040: dbfe 4ebd 6951 8abd 97b2 f2bc 4f48 d03c
00000050: bae5 3a3c f1d6 a13c 15b9 d43c e161 4ebc

net2.model.1.weight f4 [24]
-0.2881636 1.277935 0.8867434 -1.2177407 -0.31781995 -0.6179211 -1.1053911 1.2688409
1.280736 1.5330122 -0.8489694 1.3215973 0.35810694 0.49769843 -0.1878829 -0.16626392
0.4227342 -0.40920272 -0.10526232 -0.9751953 0.40700388 0.4543704 -0.026340876 0.67250544
00000000: 2e8a 93be 6093 a33f 9e01 633f edde 9bbf
00000010: 4cb9 a2be 1430 1ebf 757d 8dbf 6169 a23f
00000020: 28ef a33f be39 c43f 0f56 59bf 1a2a a93f
00000030: cb59 b73e 54d2 fe3e 6064 40be 1741 2abe
00000040: 9e70 d83e 0583 d1be c593 d7bd 66a6 79bf
00000050: d062 d03e 3da3 e83e d2c8 d7bc 5129 2c3f

net2.model.1.bias f4 [24]
-0.0053395564 -0.0039059655 0.01944442 -0.00964974 0.00013076294 0.01316557 0.0060847015 0.0011283412
-0.029704394 -0.008494933 -0.009797451 -0.029825527 0.01016663 0.0012020455 0.031785615 0.0017977933
0.0063602636 -0.0005747911 -0.0005192105 -0.008440406 0.0045579677 0.0028906967 0.0016228933 -0.0024219456
00000000: 72f7 aebb 3afb 7fbb e749 9f3c f119 1ebc
00000010: 691d 0939 67b4 573c 2d62 c73b d9e4 933a
00000020: a156 f3bc 552e 0bbc 7d85 20bc aa54 f4bc
00000030: f091 263c f48d 9d3a a231 023d efa3 eb3a
00000040: c269 d03b 94ad 16ba a01b 08ba a149 0abc
00000050: 015b 953b d871 3d3b 43b7 d43a 81b9 1ebb

net2.model.1.running_mean f4 [24]
0.025193298 0.009110881 -0.10132382 -0.1121841 -0.2233138 -0.056954376 0.08659983 -0.5485633
0.28697422 0.03301473 -0.15689476 0.14336121 -0.20358677 -0.48030484 0.087865815 -0.08925827
-0.07634702 0.008619762 0.47253653 0.29395106 0.09059598 0.289531 -0.38784814 -0.009500634
00000000: 2d62 ce3c ce45 153c dd82 cfbd c7c0 e5bd
00000010: 5fac 64be fe48 69bd 405b b13d a56e 0cbf
00000020: 49ee 923e 743a 073d 05a9 20be 48cd 123e
00000030: 0d79 50be 84ea f5be fef2 b33d 0acd b6bd
00000040: d45b 9cbd e739 0d3c 4ff0 f13e c180 963e
00000050: 638a b93d 683d 943e 0894 c6be 8ca8 1bbc

net2.model.1.running_var f4 [24]
0.26316863 0.19659282 0.17722043 0.29373962 0.14820668 0.23734774 0.31031132 0.26065734
0.1849005 0.16896385 0.44747153 0.39917976 0.15106091 0.21886562 0.19328822 0.25594163
0.2597838 0.2798388 0.35186687 0.1218883 0.26308835 0.7971985 0.2802944 0.23785049
00000000: 0abe 863e a14f 493e 4679 353e 0a65 963e
00000010: 7ec3 173e 490b 733e 20e1 9e3e e174 853e
00000020: 8f56 3d3e dc04 2d3e fd1a e53e 4a61 cc3e
00000030: b6af 1a3e 4f1e 603e 59ed 453e c80a 833e
00000040: 6202 853e 0847 8f3e e527 b43e 93a0 f93d
00000050: 84b3 863e 3315 4c3f bf82 8f3e 148f 733e

net3.model.0.weight f4 [24, 24, 3, 3]
0.0012164329 -0.06497955 -0.103939675 0.08045662 0.047827717 -0.07144631 -0.011022577 0.01963685
0.03881175 0.046993017 -0.04662152 -0.0035504706 0.01622047 0.035164006 -0.0052144276 0.010914785
0.05712838 0.058014408 -0.116825104 -0.025414731 -0.00625215 0.01783996 0.0028874364 -0.13803649
-0.028331403 -0.015306016 -0.018265849 -0.07109283 -0.0051046237 0.011766253 0.10268152 -0.006097171
-0.055333972 0.033538114 0.0863991 0.02107509 0.07421925 -0.014639937 0.047913555 -0.0008460478
0.057165638 -0.10045317 -0.058576204 0.026316607 0.023794614 0.09361703 0.026160698 0.075216204
0.043447338 -0.041925836 -0.050792053 0.029530732 0.03978678 -0.029048337 -0.012263927 -0.04385476
0.029040975 -0.07023186 -0.07700221 -0.008729783 0.06096919 0.03726026 -0.1441171 0.15381938
0.007008634 -0.06779176 -0.055192266 0.004269441 -0.110826224 0.040021982 0.05501861 -0.023673313
0.04344072 0.030891595 -0.06560185 -0.008768985 0.024320869 -0.065639086 -0.015026921 -0.03727842
0.0425743 0.07493459 -0.026121186 -0.016459929 0.023786074 -0.04417898 -0.016087493 0.119591504
-0.024980366 -0.097833954 0.06960206 -0.119392455 0.08255916 0.12005923 -0.008675554 0.104060106
0.018222684 -0.024864003 -0.031252302 0.04610979 0.024862217 -0.09828475 -0.03741911 0.08710526
0.03309485 0.009112719 -0.0066193934 -0.06970232 0.0863555 0.027360002 -0.009290477 0.010056739
-0.09890922 -0.0058559324 0.06259078 -0.10411057 -0.00017672071 -0.017298095 0.070324935 -0.001707837
-0.057303607 0.13485767 -0.014592722 -0.021488946 -0.017491883 -0.05750752 -0.15569343 -0.12600428
-0.048987776 -0.002515999 0.029162396 -0.058990065 -0.03969431 0.093942985 -0.17682184 -0.0010638346
0.09087358 0.08769538 -0.0151362065 0.019325549 -0.0063192025 -0.014284249 0.068477474 0.038657054
-0.02911604 -0.0576248 -0.0667123 0.009499625 -0.025282266 -0.068041705 0.050281066 0.028571315
-0.012859805 0.021043874 0.071124025 -0.022103209 0.075784475 0.08701684 0.03471052 0.027191568
-0.02838857 -0.065635644 0.016863462 -0.038116153 -0.07572388 0.044797055 -0.030243672 -0.07535667
-0.08049969 -0.06090952 0.059991054 -0.108836405 -0.15304793 -0.062273882 0.017789802 -0.056928296
-0.04023993 0.06268862 -0.10362035 0.15101317 -0.018194418 0.024922533 0.057314802 -0.016074147
-0.0164039 -0.028418886 0.033024777 -0.008176313 -0.107569665 -0.013115692 0.049415093 -0.024264881
0.048907116 0.035195738 -0.12135245 0.022755833 -0.039125606 -0.024716524 -0.08304418 -0.2727475
-0.024118595 -0.117349334 0.05347864 -0.052444868 0.032622833 -0.1665352 -0.07320157 -0.034009837
0.015736649 -0.0016412482 -0.0035184224 0.039367773 0.14195235 -0.01584254 0.009312662 -0.06685164
0.002042187 -0.13074154 -0.004117619 0.002681029 -0.05055176 0.03448386 -0.016177017 -0.012357533
-0.017962161 0.07137194 0.044267096 -0.0024187826 -0.040521976 -0.066993624 0.04220598 -0.01503069
-0.05818967 0.106761254 -0.073010854 0.09216509 -0.039196923 0.015858775 -0.051179774 0.019984778
-0.051542964 -0.07860568 9.532455e-05 -0.0107143205 0.05881693 0.011839545 0.05850295 0.0438237
0.06296146 -0.0038890222 -0.019812884 0.06795191 0.011188399 -0.03362155 -0.053034455 0.021585573
00000000: b770 9f3a 0014 85bd 53de d4bd 71c6 a43d
00000010: ffe6 433d 7152 92bd 0a98 34bc 76dd a03c
00000020: 12f9 1e3d c07b 403d 35f6 3ebd 03af 68bb
00000030: cbe0 843c 2208 103d cadd aabb edd3 323c
00000040: 73ff 693d 84a0 6d3d 0042 efbd 8e32 d0bc
00000050: d6de ccbb 1c25 923c 253b 3d3b 7059 0dbe
00000060: 4217 e8bc 16c6 7abc 43a2 95bc 1e99 91bd
00000070: b044 a7bb 3ec7 403c b04a d23d c7ca c7bb
00000080: e0a5 62bd 435f 093d 03f2 b03d aba5 ac3c
00000090: 4300 983d 59dc 6fbc 0141 443d 4fc9 5dba
000000a0: 8426 6a3d 64ba cdbd 9aed 6fbd ed95 d73c
000000b0: ecec c23c 49ba bf3d f64e d63c f40a 9a3d
000000c0: d6f5 313d 6dba 2bbd 540b 50bd 6fea f13c
000000d0: 76f7 223d c7f6 edbc a3ee 48bc 0ca1 33bd
000000e0: 57e7 ed3c b9d5 8fbd 56b3 9dbd 5d07 0fbc
000000f0: d4ba 793d 379e 183d 6f93 13be d482 1d3e
00000100: afa8 e53b 68d6 8abd 4911 62bd abe6 8b3b
00000110: dcf8 e2bd 17ee 233d 325b 613d 89ee c1bc
00000120: e5ee 313d 5f10 fd3c 435a 86bd caab 0fbc
00000130: 8f3c c73c c96d 86bd 7a33 76bc 42b1 18bd
00000140: 6462 2e3d 4e77 993d 19fc d5bc f9d6 86bc
00000150: 03db c23c 05f5 34bd ebc9 83bc 64ec f43d
00000160: a0a3 ccbc 2b5d c8bd 868b 8e3d 0884 f4bd
00000170: c714 a93d 9de1 f53d e923 0ebc 771d d53d
00000180: bd47 953c 98af cbbc 6a02 00bd 9fdd 3c3d
00000190: d9ab cb3c 8449 c9bd c844 19bd 3e64 b23d
000001a0: 778e 073d 844d 153c 7fe7 d8bb 17c0 8ebd
000001b0: 27db b03d 1522 e03c 1637 18bc 05c5 243c
000001c0: eb90 cabd 1fe3 bfbb 982f 803d ec37 d5bd
000001d0: 1b4e 39b9 bcb4 8dbc 8506 903d 80d9 dfba
000001e0: 30b7 6abd 2118 0a3e 5016 6fbc 9609 b0bc
000001f0: 234b 8fbc 018d 6bbd 196e 1fbe 4407 01be
00000200: 68a7 48bd 75e3 24bb fae5 ee3c 919f 71bd
00000210: 8096 22bd 2e65 c03d c910 35be 5e70 8bba
00000220: ed1b ba3d a399 b33d dafd 77bc 9d50 9e3c
00000230: 5011 cfbb 7c08 6abc eb3d 8c3d dc56 1e3d
00000240: c384 eebc fb07 6cbd 75a0 88bd 51a4 1b3c
00000250: c11c cfbc 7359 8bbd 85f3 4d3d 640e ea3c
00000260: eeb1 52bc 3464 ac3c 79a9 913d ca11 b5bc
00000270: e434 9b3d e335 b23d 9e2c 0e3d dac0 de3c
00000280: 258f e8bc fb6b 86bd 3e25 8a3c af1f 1cbd
00000290: 1f15 9bbd 1e7d 373d 94c1 f7bc 9954 9abd
000002a0: 05dd a4bd 437c 79bd 2eb9 753d 9fe5 debd
000002b0: 99b8 1cbe e612 7fbd ebbb 913c a52d 69bd
000002c0: a0d2 24bd e462 803d e836 d4bd 32a3 1a3e
000002d0: 760c 95bc 572a cc3c edc2 6a3d eead 83bc
000002e0: 7961 86bc b9ce e8bc fd44 073d f1f5 05bc
000002f0: 7c4d dcbd 33e3 56bc 7b67 4a3d 25c7 c6bc
00000300: d452 483d 6829 103d a287 f8bd 716a ba3c
00000310: 2c42 20bd 4f7a cabc 1113 aabd 8fa5 8bbe
00000320: 5c94 c5bc d954 f0bd 6b0c 5b3d 6ed0 56bd
00000330: 859f 053d 3488 2abe b4ea 95bd e64d 0bbd
00000340: 25ea 803c 271f d7ba 5595 66bb 1a40 213d
00000350: f55b 113e 37c8 81bc 2394 183c 83e9 88bd
00000360: 36d6 053b 1ce1 05be 17ed 86bb 34b4 2f3b
00000370: 5d0f 4fbd f33e 0d3d aa85 84bc 4077 4abc
00000380: 6225 93bc 742b 923d 6a51 353d 7084 1ebb
00000390: 5ffa 25bd f433 89bd 2de0 2c3d 4843 76bc
000003a0: 4b58 6ebd a5a5 da3d b786 95bd 0dc1 bc3d
000003b0: f48c 20bd 43ea 813c e2a1 51bd 1eb7 a33c
000003c0: b71e 53bd 04fc a0bd fae8 c738 1e8b 2fbc
000003d0: 05ea 703d a7fa 413c caa0 6f3d 7b80 333d
000003e0: f0f1 803d f7de 7ebb a14e a2bc 5f2a 8b3d
000003f0: 8c4f 373c c0b6 09bd a83a 59bd 3ad4 b03c

net3.model.0.bias f4 [24]
-0.0109057585 0.057932973 0.023658587 0.06515653 0.009883617 -0.03917294 0.017765263 0.043547977
0.04240805 0.044717077 -0.06713305 -0.045807526 -0.03109728 0.044247456 0.06120683 -0.022142911
-0.0070872726 0.01906173 -0.012924872 -0.0229781 -0.030215042 -0.03483151 0.018937135 0.039293256
00000000: 11ae 32bc 204b 6d3d a7cf c13c c970 853d
00000010: e5ee 213c ce73 20bd 7588 913c 5d5f 323d
00000020: 10b4 2d3d 4129 373d 0d7d 89bd aca0 3bbd
00000030: b9bf febc d23c 353d 03b4 7a3d 0d65 b5bc
00000040: 5a3c e8bb 5827 9c3c d8c2 53bc 923c bcbc
00000050: 8985 f7bc 7cab 0ebd 0d22 9b3c f7f1 203d

net3.model.1.weight f4 [24]
-0.5428393 0.2639053 -0.5587389 -0.31291303 -0.46986556 0.44821584 0.41019154 -1.4882435
-0.5623145 1.0019128 -1.6691643 0.13653064 0.33725736 -0.4389906 -0.6836069 -0.22271037
0.6395259 0.101592444 -1.7701476 -1.9078646 -2.3046787 -0.28362858 0.68185574 0.34565976
00000000: 84f7 0abf 981e 873e 8309 0fbf 2336 a0be
00000010: 3892 f0be 8c7c e53e a004 d23e c37e bebf
00000020: d8f3 0fbf ae3e 803f 2da7 d5bf b0ce 0b3e
00000030: ffac ac3e 60c3 e0be dd00 2fbf 300e 64be
00000040: f8b7 233f b30f d03d 3294 e2bf e834 f4bf
00000050: db7f 13c0 c437 91be 198e 2e3f 51fa b03e

net3.model.1.bias f4 [24]
0.00040172294 0.010182016 -0.024584955 0.024678843 -0.031050753 -0.015399794 -0.024343261 -0.0007414122
-0.00023367938 -0.024862353 -0.014740547 -0.011057742 -0.009516368 -0.0008655755 -0.017374197 -0.016730303
0.010451648 0.0060970993 -0.009408698 -0.004863046 -0.009093444 0.009306812 -0.02167171 0.0065202666
00000000: 579e d239 78d2 263c 6366 c9bc 492b ca3c
00000010: 265e febc 6b4f 7cbc 856b c7bc 555b 42ba
00000020: d507 75b9 22ac cbbc 5682 71bc 882b 35bc
00000030: 8aea 1bbc cae7 62ba 5554 8ebc fd0d 89bc
00000040: 643d 2b3c 2dca c73b f126 1abc 305a 9fbb
00000050: abfc 14bc 997b 183c df88 b1bc f6a7 d53b

net3.model.1.running_mean f4 [24]
-0.1465112 -0.039891336 -0.29546264 -0.15694612 -0.40170875 -0.33275318 0.3056101 0.07978277
-0.12545787 0.22713117 0.05443049 -0.38048542 0.26504904 -0.15619369 -0.47477955 0.14281179
0.047930043 0.3632605 -0.030423338 -0.18906869 -0.26798362 -0.10205903 0.32624075 -0.14297134
00000000: 0807 16be 1965 23bd e146 97be 7cb6 20be
00000010: c5ac cdbe a05e aabe ed78 9c3e 2665 a33d
00000020: 0778 00be 1395 683e 81f2 5e3d fcce c2be
00000030: 82b4 873e 3df1 1fbe 4e16 f3be 413d 123e
00000040: 4b52 443d 48fd b93e 5d3a f9bc 399b 41be
00000050: 2635 89be 5304 d1bd 0709 a73e 1467 12be

net3.model.1.running_var f4 [24]
0.18255734 0.14797759 0.35783607 0.1106392 0.23739924 0.2922796 0.22903934 0.22143531
0.21817155 0.3017275 0.6326053 0.58579195 0.33602023 0.13773678 0.56217456 0.2877396
0.40989146 0.32619253 0.20861188 0.2667713 0.38355634 0.34961465 0.47927895 0.23017013
00000000: 50f0 3a3e 7087 173e 4a36 b73e ce96 e23d
00000010: c918 733e aca5 953e 4a89 6a3e f0bf 623e
00000020: 5d68 5f3e 077c 9a3e 6cf2 213f 76f6 153f
00000030: d80a ac3e df0a 0d3e acea 0f3f 9b52 933e
00000040: 4bdd d13e b502 a73e 5a9e 553e 3f96 883e
00000050: 7f61 c43e b100 b33e 0d64 f53e b8b1 6b3e

net4.model.0.weight f4 [1, 24, 3, 3]
-0.06875852 0.0022145538 0.0069085313 -0.06814342 -0.10355915 -0.13890712 -0.050364718 -0.010559909
-0.053044513 0.066008955 -0.09383599 0.1435099 -0.0082145585 0.034147415 0.09647665 0.035013054
0.1340048 0.120651886 0.028999683 -0.039497677 0.0781445 -0.12884298 -0.10820585 0.040582996
-0.013465545 -0.023798345 -0.011345441 0.0699482 -0.12338882 0.060660623 -0.0073734075 0.15410861
-0.012796068 0.11921135 -0.050961033 0.057242382 0.14781043 -0.018825471 -0.14344884 -0.010420991
-0.17903215 -0.1453718 -0.018568734 -0.06260815 -0.030497666 0.081804335 0.103080235 0.03705907
0.052384228 -0.11964954 0.01462277 0.05528478 -0.047889795 0.13306396 -0.07548332 -0.08796489
0.049683623 0.0020419667 -0.06362071 0.028909998 -0.18101573 0.041118506 -0.05314497 -0.050559584
-0.15345375 -0.1017918 0.11902681 -0.11595546 -0.12776831 -0.03212662 -0.09258003 -0.0013165119
0.088909864 0.060381636 0.13687772 0.02697516 -0.039572917 0.057305384 0.0943933 0.06298192
0.099993385 0.03587396 -0.046193134 0.07062032 -0.105733246 -0.06366798 0.014463027 0.011781073
0.05410245 -0.17167698 0.033704273 -0.038877673 -0.0014936142 -0.20220982 0.020068878 -0.024771532
0.012255638 -0.030943194 -0.093248725 0.12748486 0.13396342 0.010756307 -0.009300027 0.05878002
0.1973682 -0.08308664 -0.05185556 0.038732864 -0.18225002 -0.027502721 0.042335622 0.113395415
-0.1003246 -0.16388594 -0.069913656 -0.03671203 0.12612648 -0.01297089 -0.083624735 0.017412467
0.014031876 0.13539161 -0.14320116 -0.09416525 -0.08469627 -0.11922355 0.14744352 0.04835566
-0.15099801 -0.11123578 -0.009933967 -0.2518413 0.006370741 -0.0028923051 0.028766833 -0.04942103
0.105989516 -0.12152291 -0.007863674 0.16164197 0.07228901 -0.008409054 -0.013799182 0.011810372
-0.005618017 0.12759078 0.012090116 -0.0355931 -0.16526401 0.12954067 0.078897335 0.18549986
-0.06914662 0.12511426 -0.10136942 0.07784393 -0.15054925 0.07919348 -0.06577507 -0.057339653
0.073293656 0.002593215 -0.049288366 -0.023639001 -0.062469322 -0.08150101 -0.082669124 0.0100174695
0.031604633 0.0034644806 -0.0915573 0.048658766 0.080223 -0.048368875 -0.052637286 -0.17096859
0.0077409158 -0.09043917 -0.09774751 0.010612171 -0.06267685 -0.08836762 -0.1252149 -0.06272526
-0.050423294 -0.048025083 0.013554692 -0.016612457 -0.00356016 0.10688363 -0.09011 -0.0380772
0.075626664 -0.07088498 -0.12707596 -0.011800523 0.003298996 -0.06899209 -0.068483286 -0.16640632
-0.1307241 -0.07200183 -0.011297831 0.072033636 -0.15062736 -0.08472143 0.1027005 -0.07995602
-0.024549296 0.07377293 0.010399586 -0.061857898 0.17984165 -0.01870241 -0.046128016 0.057014395
00000000: 44d1 8cbd 0c22 113b f660 e23b c78e 8bbd
00000010: d216 d4bd ab3d 0ebe 3c4b 4ebd 7803 2dbc
00000020: 3445 59bd b42f 873d 152d c0bd 42f4 123e
00000030: 5b96 06bc 29de 0b3d 8d95 c53d d969 0f3d
00000040: 8e38 093e 5618 f73d be90 ed3c 51c8 21bd
00000050: 390a a03d 6aef 03be 079b ddbd 5b3a 263d
00000060: 979e 5cbc bff4 c2bc 3be2 39bc 0041 8f3d
00000070: 47b3 fcbd 4677 783d a09c f1bb a6ce 1d3e
00000080: 99a6 51bc 1525 f43d 84bc 50bd fd76 6a3d
00000090: 9e5b 173e e037 9abc 41e4 12be cebc 2abc
000000a0: 3454 37be 58dc 14be 751d 98bc b438 80bd
000000b0: 3ed6 f9bc 0889 a73d bb1b d33d 40cb 173d
000000c0: d890 563d d10a f5bd 5894 6f3c 4b72 623d
000000d0: 1728 44bd eb41 083e 0097 9abd f026 b4bd
000000e0: 0e81 4b3d 84d2 053b 934b 82bd a9d4 ec3c
000000f0: 305c 39be e16b 283d 8aae 59bd 9117 4fbd
00000100: fb22 1dbe 3878 d0bd 54c4 f33d 0e7a edbd
00000110: b2d5 02be 3497 03bd 999a bdbd cf8e acba
00000120: 6016 b63d bc52 773d ac29 0c3e 03fb dc3c
00000130: 3617 22bd 0db9 6a3d 4651 c13d aafc 803d
00000140: 55c9 cc3d 93f0 123d 0335 3dbd 63a1 903d
00000150: ac8a d8bd 5c64 82bd 55f6 6c3c 6705 413c
00000160: 889a 5d3d 17cc 2fbe 7e0d 0a3d 323e 1fbd
00000170: 60c5 c3ba 1710 4fbe 7d67 a43c abed cabc
00000180: dfcb 483c 957c fdbc 30f9 bebd 648b 023e
00000190: b52d 093e 393b 303c 245f 18bc 51c3 703d
000001a0: e41a 4a3e 5429 aabd 7f66 54bd 5aa6 1e3d
000001b0: c09f 3abe 634d e1bc 1e68 2d3d db3b e83d
000001c0: fc76 cdbd b7d1 27be e42e 8fbd 5b5f 16bd
000001d0: 4d27 013e db83 54bc 7243 abbd 97a4 8e3c
000001e0: f4e5 653c 19a4 0a3e 53a3 12be b6d9 c0bd
000001f0: 3d75 adbd 7a2b f4bd 6ffb 163e 9610 463d
00000200: 399f 1abe 96cf e3bd 14c2 22bc 58f1 80be
00000210: a6c1 d03b d48c 3dbb 6ca8 eb3c b56d 4abd
00000220: 0811 d93d 01e1 f8bd a4d6 00bc 7985 253e
00000230: 430c 943d 21c6 09bc f715 62bc 4a80 413c
00000240: 5817 b8bb 28a7 023e 9f15 463c 12ca 11bd
00000250: f83a 29be 4fa6 043e ed94 a13d adf3 3d3e
00000260: be9c 8dbd f41d 003e c59a cfbd a36c 9f3d
00000270: 9529 1abe 3130 a23d 14b5 86bd fcdc 6abd
00000280: fc1a 963d eef2 293b 99e2 49bd 94a6 c1bc
00000290: d5df 7fbd 00ea a6bd 6e4e a9bd 5020 243c
000002a0: dc73 013d 570c 633b 6582 bbbd 6a4e 473d
000002b0: f54b a43d 711e 46bd 329a 57bd 6412 2fbe
000002c0: 82a7 fd3b 2c38 b9bd d92f c8bd acde 2d3c
000002d0: b85c 80bd 15fa b4bd 5638 00be 1a76 80bd
000002e0: a888 4ebd f3b5 44bd 8014 5e3c d916 88bc
000002f0: 9351 69bb cee5 da3d 978b b8bd d7f6 1bbd
00000300: 27e2 9a3d 252c 91bd 3320 02be fb56 41bc
00000310: f833 583b ba4b 8dbd f740 8cbd 6b66 2abe
00000320: 8adc 05be b275 93bd 8a1a 39bc 5f86 933d
00000330: 0f3e 1abe 6e82 adbd a454 d23d fbbf a3bd
00000340: 9b1b c9bc 4316 973d 0663 2a3c b55e 7dbd
00000350: 6928 383e cc35 99bc bbf0 3cbd ed87 693d

bn1.weight f4 [128]
1.2541792 1.6347865 0.44667444 -1.5105771 0.31076032 1.583647 1.4101628 -1.3041213
1.9335347 0.033071917 1.010921 -1.3480821 -0.049158964 2.0126746 0.8501592 0.29006138
-0.03161051 0.8608053 -0.59876245 1.321032 -1.2153517 1.0022405 0.7080391 0.86709
1.0101404 -1.4982588 0.7506191 0.14047432 -0.8776316 0.17839105 1.0750487 0.6845465
1.8103092 -0.059504203 -0.08075309 -0.12369187 0.5917229 -0.53065324 -1.8455037 0.14378361
-0.2574313 0.3540913 1.521609 -0.24368687 0.46113455 1.5743203 -1.2690839 0.31583855
-0.98946184 -0.55594903 0.4087736 0.6819422 -1.397326 -1.1121763 -0.7011571 0.85870427
3.0721638 2.2709718 1.6938825 1.6162505 -1.3616754 0.8168789 -0.71878695 -0.1048329
-1.0115012 0.4421552 1.3037574 -0.27974054 0.68415904 1.97045 0.4603866 -0.51353127
-1.2252923 0.021360477 -0.16097061 -0.5657536 -0.7208538 -0.66437167 1.848518 -0.41637158
-0.254994 -0.33066177 1.7984173 -0.16745232 -1.3349983 1.1554655 1.7031305 0.035419744
0.8800609 -0.36000618 0.011607593 0.2038841 -0.13252756 0.7888966 0.35128373 -0.016365137
-1.911111 0.08027453 -0.22092862 -0.8272781 -0.7893339 -0.6439412 -1.0151707 0.47327977
0.9758848 -0.03494097 -1.8068309 0.3445558 0.73876095 -0.8262977 0.7395161 -0.64853317
-0.2553047 -1.0944761 0.75825816 -0.43612313 -1.3344352 0.9112755 -2.6955757 -0.6430381
0.2712318 -1.902304 0.9734298 0.39466122 0.88722324 2.019253 0.62618303 -1.2851158
00000000: f288 a03f af40 d13f 83b2 e43e 975a c1bf
00000010: fa1b 9f3e f2b4 ca3f 3780 b43f 72ed a6bf
00000020: 117e f73f 6b76 073d dc65 813f f48d acbf
00000030: e95a 49bd a9cf 0040 09a4 593f ed82 943e
00000040: 067a 01bd bc5d 5c3f 7f48 19bf 9417 a93f
00000050: a590 9bbf 6b49 803f 0d42 353f 9cf9 5d3f
00000060: 484c 813f f2c6 bfbf 9328 403f 80d8 0f3e
00000070: 77ac 60bf 25ac 363e 329b 893f 703e 2f3f
00000080: 36b8 e73f aeba 73bd e061 a5bd 2a52 fdbd
00000090: 277b 173f e4d8 07bf 7739 ecbf 033c 133e
000000a0: 09ce 83be 744b b53e 15c4 c23f 0d89 79be
000000b0: d419 ec3e 5483 c93f 5771 a2bf 97b5 a13e
000000c0: 5f4d 7dbf ad52 0ebf c64a d13e c493 2e3f
000000d0: 94db b2bf cb5b 8ebf 087f 33bf 0bd4 5b3f
000000e0: 559e 4440 9a57 1140 24d1 d83f 4ce1 ce3f
000000f0: 614b aebf fa1e 513f 6c02 38bf a2b2 d6bd
00000100: df78 81bf 2b62 e23e 86e1 a63f 273a 8fbe
00000110: 0c25 2f3f b537 fc3f cbb7 eb3e c976 03bf
00000120: 61d6 9cbf 2bfc ae3c 7bd5 24be 3ad5 10bf
00000130: e089 38bf 4314 2abf 3d9c ec3f a82e d5be
00000140: 938e 82be 804c a9be 8a32 e63f 9f78 2bbe
00000150: 39e1 aabf 4be6 933f 2e00 da3f 4b14 113d
00000160: ac4b 613f bb52 b8be c62d 3e3c fec6 503e
00000170: 4eb5 07be 21f5 493f 76db b33e 2e10 86bc
00000180: 499f f4bf f966 a43d 1d3b 62be 7fc8 53bf
00000190: c911 4abf 55d9 24bf 1df1 81bf ba51 f23e
000001a0: 96d3 793f 431e 0fbd 3c46 e7bf 9e69 b03e
000001b0: 701f 3d3f 3f88 53bf ed50 3d3f 4506 26bf
000001c0: 4cb7 82be cb17 8cbf 351d 423f 884b dfbe
000001d0: c6ce aabf 5a49 693f 5084 2cc0 259e 24bf
000001e0: e5de 8a3e b37e f3bf b232 793f 0911 ca3e
000001f0: 1021 633f 713b 0140 884d 203f ad7e a4bf

bn1.bias f4 [128]
0.025294416 -0.011279936 0.04453764 0.001399364 -0.03727769 0.032883603 0.01791616 -0.0323424
-0.02388057 0.02998484 -0.040293287 -0.03265914 0.030058531 0.018168995 -0.025055867 -0.036836874
0.025785076 0.014152533 0.042622082 0.03137119 -0.019491106 -0.021154262 -0.019008253 0.03181036
0.026085533 -0.02550364 0.027968628 0.024543671 0.026983302 0.04532998 0.035332512 0.03539823
-0.0009414528 -0.024272783 0.04537586 0.040291626 -0.036105316 -0.015296478 -0.010994943 -0.03962827
0.03447754 -0.029500145 -0.019946953 -0.033192433 0.0011589205 0.01310058 -0.010504066 -0.044490036
-0.03142328 0.012600462 0.03890062 -0.021655092 -0.0264014 -0.038074877 -0.0011469164 0.028300231
0.014653622 -0.013397713 -0.009388647 0.034841478 0.032181483 -0.021520264 0.013339154 0.047910653
-0.022460515 -0.03686878 0.01787403 0.04596791 -0.026640866 -0.012110511 0.03195263 0.037604067
0.028749669 0.0091880895 0.015691685 -0.037665248 -0.035646517 0.04363444 0.028519252 -0.029835157
0.011111913 -0.03237933 -0.015152937 0.033276934 -0.029792812 0.029854976 -0.008959734 0.039242532
0.018434742 -0.022078797 -0.0038181518 -0.021579372 0.03717674 -0.0033796404 -0.01865904 -0.024736425
-0.0035182505 -0.03441958 -0.054198015 0.035731066 -0.033372037 -0.02278996 0.01713242 -0.030684901
-0.03702708 0.03846556 0.023142563 0.049047537 0.003816928 -0.03259689 0.03374435 0.052167002
-0.02910781 -0.018524826 -0.044670086 -0.034121055 0.02343976 0.0371168 -0.010980873 0.02127471
0.041579187 -0.02176671 0.02063764 -0.0040774685 -0.023201702 -0.012006514 0.042365137 0.032305732
00000000: 3c36 cf3c 7bcf 38bc 1a6d 363d dd6a b73a
00000010: 7eb0 18bd f5b0 063d e9c4 923c 7779 04bd
00000020: 2fa1 c3bc c4a2 f53c 930a 25bd 97c5 05bd
00000030: 4f3d f63c 25d7 943c f641 cdbc 43e2 16bd
00000040: 393b d33c 07e0 673c 7e94 2e3d 147f 003d
00000050: d0ab 9fbc b44b adbc 32b7 9bbc 944b 023d
00000060: 54b1 d53c 02ed d0bc 771e e53c cf0f c93c
00000070: 160c dd3c eeab 393d d3b8 103d bcfd 103d
00000080: d4cb 76ba b7d7 c6bc 0adc 393d d508 253d
00000090: 2be3 13bd 149e 7abc 2224 34bc 4151 22bd
000000a0: 5238 0d3d 4aaa f1bc cb67 a3bc caf4 07bd
000000b0: ebe6 973a d1a3 563c 3f19 2cbc 2f3b 36bd
000000c0: b2b5 00bd 2b72 4e3c 4256 1f3d 0566 b1bc
000000d0: c047 d8bc 67f4 1bbd 2154 96ba e3d5 e73c
000000e0: bf15 703c 1582 5bbc d7d2 19bc f0b5 0e3d
000000f0: bbd0 033d 444b b0bc 788c 5a3c f63d 443d
00000100: 1dff b7bc b803 17bd 8f6c 923c d948 3c3d
00000110: f23d dabc 2a6b 46bc c3e0 023d b906 1a3d
00000120: 6d84 eb3c a489 163c d98b 803c e046 1abd
00000130: 1502 12bd 07ba 323d 35a1 e93c dc68 f4bc
00000140: be0e 363c 30a0 04bd 0644 78bc 654d 083d
00000150: 0e10 f4bc 6c92 f43c d9cb 12bc c7bc 203d
00000160: 7504 973c 98de b4bc f539 7abb 39c7 b0bc
00000170: a346 183d f57c 5dbb d8da 98bc 0ba4 cabc
00000180: 7392 66bb 8cfb 0cbd bdfe 5dbd bd5a 123d
00000190: 1eb1 08bd 03b2 babc 4a59 8c3c e75e fbbc
000001a0: b5a9 17bd 108e 1d3d 7995 bd3c 12e6 483d
000001b0: 6d25 7a3b 5184 05bd 8437 0a3d 11ad 553d
000001c0: 8173 eebc 60c1 97bc fbf7 36bd 85c2 0bbd
000001d0: bd04 c03c c907 183d 1fe9 33bc 4d48 ae3c
000001e0: f04e 2a3d 1950 b2bc 4510 a93c 499c 85bb
000001f0: 7f11 bebc f8b6 44bc 1187 2d3d 0453 043d

bn1.running_mean f4 [128]
0.03841525 0.3555838 -0.4462454 -0.2702357 0.08595048 -0.21323156 -0.11100063 -0.41197336
-0.22944999 -0.08388379 0.27482396 0.12277715 -0.005089452 0.14559339 0.25741717 0.19535488
0.32998186 -0.36942956 0.3460858 -0.42284846 -0.040699176 -0.03570909 -0.3098427 -0.028567601
0.12425163 0.020996409 -0.21636847 0.0398213 0.21772715 -0.17382318 -0.36448485 -0.2629411
-0.13655454 -0.287892 -0.015990362 0.055127837 -0.1191263 -0.22545207 -0.1047871 0.08534832
0.2350938 0.22702575 0.11383641 -0.009879035 -0.09042636 -0.26960757 -0.32861882 0.010522173
-0.31509012 0.032089 -0.15428479 0.1503787 -0.41191092 -0.20629579 0.0018400658 -0.06113111
-0.24708243 0.14081903 0.037729595 -0.08840513 0.07065564 0.42378718 0.05525834 0.47094968
-0.050562393 0.12555894 -0.07205199 0.47979382 0.018186511 0.095807016 0.261546 -0.024517931
0.027793815 0.13719751 -0.14418538 -0.026003951 -0.08246203 0.09981965 -0.20511526 0.010191789
0.23065935 -0.19519457 -0.30648497 -0.14589995 -0.106728815 -0.040452473 -0.19995561 -0.1592254
-0.0774883 -0.16663256 -0.095281385 -0.15448089 -0.101899564 0.10572044 0.018265456 -0.27491188
-0.18340762 -0.08336367 -0.20993982 0.25543517 -0.3518723 -0.12121808 0.23493078 -0.12559545
0.116718985 0.114661366 0.2780257 -0.16587804 -0.18698867 -0.32684815 -0.17487417 0.21793108
0.35679412 0.06429079 0.25384352 -0.05885593 0.20152964 0.13389628 -0.574146 0.30220857
0.15010366 -0.22675255 -0.25747138 0.07953578 0.16775808 -0.105678804 -0.1346171 0.0659272
00000000: 4f59 1d3d 140f b63e 477a e4be 555c 8abe
00000010: ce06 b03d 6059 5abe 4c54 e3bd 2cee d2be
00000020: f0f4 6abe 44cb abbd bab5 8c3e 9672 fb3d
00000030: 6bc5 a6bb 6f16 153e 2fcc 833e 1c0b 483e
00000040: 62f3 a83e df25 bdbe 2832 b13e 987f d8be
00000050: 2eb4 26bd b243 12bd b4a3 9ebe 9a06 eabc
00000060: a377 fe3d a900 ac3c b28f 5dbe a91b 233d
00000070: def3 5e3e b4fe 31be c29d babe 37a0 86be
00000080: f4d4 0bbe 9566 93be 38fe 82bc bacd 613d
00000090: 7df8 f3bd e8dc 66be 9e9a d6bd 1acb ae3d
000000a0: 6ebc 703e 7079 683e 1023 e93d addb 21bc
000000b0: 7531 b9bd 010a 8abe ba40 a8be 3165 2c3c
000000c0: 7e53 a1be c16f 033d d5fc 1dbe e0fc 193e
000000d0: fde5 d2be 343f 53be 5d2e f13a 9d64 7abd
000000e0: 2d03 7dbe dd32 103e 598a 1a3d c00d b5bd
000000f0: e7b3 903d a2fa d83e 9256 623d 5120 f13e
00000100: 831a 4fbd 8692 003e fe8f 93bd 89a7 f53e
00000110: e1fb 943c 7836 c43d 5be9 853e d4d9 c8bc
00000120: dbaf e33c 817d 0c3e 55a5 13be 3d06 d5bc
00000130: dae1 a8bd 3f6e cc3d bc09 52be 76fb 263c
00000140: f731 6c3e 16e1 47be 99eb 9cbe cc66 15be
00000150: a394 dabd 7eb1 25bd 2ac1 4cbe fc0b 23be
00000160: 30b2 9ebd baa1 2abe e322 c3bd 3d30 1ebe
00000170: b8b0 d0bd f583 d83d 70a1 953c 40c1 8cbe
00000180: 35cf 3bbe 92ba aabd 77fa 56be 66c8 823e
00000190: 9b28 b4be 2f41 f8bd b291 703e 189c 00be
000001a0: 5d0a ef3d 94d3 ea3d 6259 8e3e efdb 29be
000001b0: f579 3fbe a458 a7be 3712 33be 5329 5f3e
000001c0: b8ad b63e e4aa 833d c7f7 813e ea12 71bd
000001d0: c95d 4e3e 1b1c 093e 3bfb 12bf 15bb 9a3e
000001e0: c6b4 193e d231 68be 4ad3 83be a8e3 a23d
000001f0: c6c8 2b3e 216e d8bd 11d9 09be d704 873d

bn1.running_var f4 [128]
0.104952976 0.21922463 0.7515984 0.09373424 0.054477707 0.3376077 0.17172578 0.14001285
0.14652272 0.14370526 0.09777749 0.09650843 0.05935499 0.19019343 0.17966759 0.27289742
0.12688176 0.12497521 0.6906676 0.74981785 0.10279863 0.13976197 0.1027761 0.25471407
0.19435851 0.15768649 0.1486548 0.29676756 0.20918992 0.19697879 0.47587004 0.25156265
0.16751873 0.1341004 0.1130512 0.15495226 0.13563648 0.3236628 0.39777184 0.06252512
0.5269411 0.16351323 0.12059362 0.065850355 0.045997493 0.32832456 0.20996886 0.0628991
0.3841403 0.14199987 0.15622056 0.091923155 0.50031906 0.3126743 0.109748974 0.10312644
0.42452896 0.18827565 0.19064727 0.1242404 0.13764496 0.3679637 0.14080055 0.3216286
0.24191603 0.44756338 0.11574566 0.6509606 0.112595804 0.08031031 0.12801784 0.12789164
0.14373836 0.11303142 0.08790828 0.09044869 0.29546294 0.19790429 0.48201907 0.14156386
0.11325028 0.3466052 0.35079435 0.06689303 0.08699579 0.10417351 0.18013911 0.091362976
0.07263529 0.07110498 0.10166834 0.06553672 0.14457142 0.082571514 0.09847065 0.15484409
0.21400361 0.10254466 0.36934587 0.23030375 0.27440906 0.11840482 0.12175593 0.08942684
0.14793646 0.077678785 0.12745601 0.13133948 0.122352414 0.27909893 0.3331455 0.40550825
0.11488447 0.106466696 0.2512531 0.19744416 0.15273194 0.16869338 0.42812896 0.14301966
0.12023807 0.22114049 0.3556992 0.08275506 0.10157998 0.1673551 0.28314918 0.2182333
00000000: 96f1 d63d 6c7c 603e c168 403f bdf7 bf3d
00000010: 0424 5f3d ebda ac3e e2d8 2f3e 875f 0f3e
00000020: 0d0a 163e 7927 133e 913f c83d 36a6 c53d
00000030: 381e 733d 11c2 423e c8fa 373e 36b9 8b3e
00000040: 4bed 013e 01f3 ff3d 98cf 303f 10f4 3f3f
00000050: 1788 d23d c31d 0f3e 477c d23d e269 823e
00000060: eb05 473e 9178 213e f738 183e ebf1 973e
00000070: e235 563e cfb4 493e 3da5 f33e d2cc 803e
00000080: 088a 2b3e 9e51 093e 6387 e73d ceab 1e3e
00000090: 4ae4 0a3e 21b7 a53e c0a8 cb3e 2c0d 803d
000000a0: 9de5 063f 0370 273e caf9 f63d 8ddc 863d
000000b0: de67 3c3d 281a a83e 1402 573e 3ed1 803d
000000c0: 0aae c43e 6a68 113e 48f8 1f3e 3542 bc3d
000000d0: e914 003f d916 a03e 12c4 e03d f433 d33d
000000e0: dc5b d93e 55cb 403e 0a39 433e c071 fe3d
000000f0: cdf2 0c3e bd65 bc3e 052e 103e 81ac a43e
00000100: d6b8 773e 0727 e53e 100c ed3d 5ba5 263f
00000110: a198 e63d bb79 a43d 1c17 033e 07f6 023e
00000120: 2630 133e 047d e73d 4209 b43d 2a3d b93d
00000130: eb46 973e 6ca7 4a3e 34cb f63e 1ef6 103e
00000140: c3ef e73d 3d76 b13e 519b b33e 37ff 883d
00000150: d92a b23d ec58 d53d 6376 383e 831c bb3d
00000160: d0c1 943d 7d9f 913d 7e37 d03d 1e38 863d
00000170: 880a 143e 411b a93d fbaa c93d 738f 1e3e
00000180: c323 5b3e ef02 d23d e71a bd3e bfd4 6b3e
00000190: 587f 8c3e 3a7e f23d 2c5b f93d 6b25 b73d
000001a0: a87c 173e 0e16 9f3d d483 023e db7d 063e
000001b0: e793 fa3d 0ee6 8e3e 0c92 aa3e c79e cf3e
000001c0: 8d48 eb3d 360b da3d 3fa4 803e cd2e 4a3e
000001d0: c365 1c3e f5bd 2c3e b833 db3e bf73 123e
000001e0: 613f f63d a772 623e 351e b63e 7c7b a93d
000001f0: 2a09 d03d 235f 2b3e eef8 903e 8d78 5f3e

bn2.weight f4 [64]
-0.035316315 -1.0610642 0.12196139 -0.62461853 -2.1768878 -1.131613 0.08073062 1.7954658
-2.5481699 1.1561488 -1.4698057 -0.29060188 0.36316082 0.014025117 -1.4032311 2.0960705
-0.7257318 0.900238 0.18591808 -0.5747929 1.4582778 -0.21779911 0.41456953 -1.8192892
0.5723784 -1.2222983 -0.5410694 -0.14460348 -2.5827448 -0.9693226 -0.89166087 -0.31304848
-0.29358244 -2.2958786 0.5516579 -0.2980394 -0.037992295 -0.5582354 -0.16174299 -0.9555648
-0.43209523 -0.6591251 1.247338 0.9392878 0.4837711 1.2631474 -0.8487687 0.82387805
-1.7411959 0.40602216 -0.35691258 1.2032862 -2.0341942 -0.592283 -0.94993526 -0.23107582
1.3930167 -1.2756267 1.9828819 -0.118474394 2.7232125 -1.0469544 1.0857869 -1.0440083
00000000: d7a7 10bd f4d0 87bf e5c6 f93d 00e7 1fbf
00000010: 2152 0bc0 b2d8 90bf 1856 a53d d3d1 e53f
00000020: 3715 23c0 affc 933f 9822 bcbf c5c9 94be
00000030: 37f0 b93e 9bc9 653c 149d b3bf 0526 0640
00000040: 8fc9 39bf ff75 663f 4f61 3e3e a125 13bf
00000050: d9a8 ba3f bb06 5fbe 7542 d43e 78de e8bf
00000060: 6487 123f 4574 9cbf 8683 0abf ef12 14be
00000070: b14b 25c0 8725 78bf e343 64bf e447 a0be
00000080: 7050 96be adef 12c0 7439 0d3f 9f98 98be
00000090: cf9d 1bbd 84e8 0ebf f49f 25be e59f 74bf
000000a0: 963b ddbe 6cbc 28bf c6a8 9f3f 2a75 703f
000000b0: d8b0 f73e d0ae a13f e848 59bf ace9 523f
000000c0: 82df debf 23e2 cf3e 3fbd b6be 4805 9a3f
000000d0: 3d30 02c0 dc9f 17bf f52e 73bf 249f 6cbe
000000e0: 5f4e b23f bc47 a3bf 13cf fd3f b4a2 f2bd
000000f0: 1d49 2e40 9a02 86bf 11fb 8a3f 10a2 85bf

bn2.bias f4 [64]
0.026121115 0.017893195 -0.035000343 0.018688826 -0.020590143 -0.00085897505 0.0075627547 -0.02012764
0.015586146 0.03129669 0.018211931 -0.011332808 -0.0038429047 -0.0057804873 -0.032240845 0.018599618
-0.028671632 0.03542726 0.036736734 -0.02772707 -0.013882294 -0.039447233 0.03597067 -5.376062e-05
-0.040283706 -0.02336119 0.04290983 -0.0050579724 -0.018917872 0.035382934 -0.037004896 -0.02538163
-0.0064724446 0.014368903 0.035228908 -0.034504198 0.02319286 -0.052843533 -0.025885858 0.019747116
0.03860269 0.010750501 0.023313547 0.0006669345 0.030328928 0.010561184 -0.031680882 -0.033078525
-0.007089551 0.046422157 -0.037275102 0.02358803 0.010609769 0.03764376 0.036163975 0.02937444
-0.01481742 0.011689606 0.01364858 0.028611252 0.009901499 -0.02457133 0.016915206 0.017233081
00000000: f3fb d53c c094 923c 855c 0fbd 4f19 993c
00000010: a9ac a8bc d72c 61ba fcd0 f73b b8e2 a4bc
00000020: 095d 7f3c f530 003d 3031 953c 3ead 39bc
00000030: 3ed9 7bbb 3e6a bdbb fa0e 04bd 3a5e 983c
00000040: c5e0 eabc 2d1c 113d 4279 163d e123 e3bc
00000050: 9072 63bc 6c93 21bd fb55 133d 077d 61b8
00000060: 8700 25bd f75f bfbc 38c2 2f3d 59bd a5bb
00000070: a7f9 9abc b2ed 103d 7292 17bd 23ed cfbc
00000080: cd16 d4bb 8c6b 6b3c 304c 103d 4654 0dbd
00000090: f4fe bd3c 7672 58bd 940e d4bc b4c4 a13c
000000a0: db1d 1e3d df22 303c 0dfc be3c 37d5 2e3a
000000b0: 5f74 f83c d108 2d3c d0c3 01bd 597d 07bd
000000c0: 774f e8bb 2925 3e3d c7ad 18bd af3b c13c
000000d0: 99d4 2d3c 5830 1a3d ad20 143d aaa2 f03c
000000e0: c4c4 72bc c385 3f3c 4b9e 5f3c 2562 ea3c
000000f0: e639 223c d049 c9bc c291 8a3c 642c 8d3c

bn2.running_mean f4 [64]
-0.09540096 -0.02439088 -0.0109088775 0.02550729 0.20764704 -0.09432717 0.0581953 -0.22219796
-0.18043296 -0.0049441876 -0.19272962 -0.14445661 0.058698263 0.07452463 -0.07098079 0.12249667
0.07016042 0.17637216 -0.026416786 -0.17721127 -0.10708733 -0.06806999 -0.0635147 -0.19274826
-0.20196915 0.12653865 -0.3196713 0.07422793 0.15713456 -0.04501498 -0.029103247 0.09083481
0.0443119 -0.08232937 0.10591867 0.050701533 -0.0942964 -0.039121944 0.11440152 -0.06146198
-0.07928158 -0.22911237 0.05733873 0.11339304 -0.021417178 -0.030113371 -0.18245474 -0.043549348
-0.16798133 0.04212778 0.025105076 0.121070795 -0.06953943 0.1103974 -0.13431358 0.09552068
-0.07278953 0.07180797 -0.04320563 0.12924159 0.14576212 0.27022833 -0.13616715 -0.12015005
00000000: 9461 c3bd 62cf c7bc 26bb 32bc aaf4 d03c
00000010: 6da1 543e 9a2e c1bd 325e 6e3d dd87 63be
00000020: 6bc3 38be da02 a2bb ea5a 45be 6fec 13be
00000030: 976d 703d 5fa0 983d 605e 91bd 89df fa3d
00000040: 44b0 8f3d e79a 343e 0468 d8bc df76 35be
00000050: 9a50 dbbd 4768 8bbd ff13 82bd cd5f 45be
00000060: 00d1 4ebe 5993 013e f5ab a3be d004 983d
00000070: e2e7 203e a161 38bd ef69 eebc 9a07 ba3d
00000080: 6580 353d 4d9c a8bd e3eb d83d 69ac 4f3d
00000090: 791e c1bd 553e 20bd 584b ea3d 8fbf 7bbd
000000a0: 625e a2bd 6f9c 6abe 04dc 6a3d 9c3a e83d
000000b0: 1473 afbc 51b0 f6bc 6ad5 3abe cd60 32bd
000000c0: 4c03 2cbe 2e8e 2c3d 29a9 cd3c f7f3 f73d
000000d0: b06a 8ebd 0818 e23d 8089 09be 59a0 c33d
000000e0: ad12 95bd 0f10 933d 63f8 30bd e857 043e
000000f0: aa42 153e 5e5b 8a3e 676f 0bbe 3b11 f6bd
